…
  7                  -1  1     14702  ultralytics.nn.backbone.MobileNetV3.MobileNetV3_InvertedResidual[16, 16, 120, 5, 1, 1, 1]     
  8                  -1  1     19364  ultralytics.nn.backbone.MobileNetV3.MobileNetV3_InvertedResidual[16, 16, 144, 5, 1, 1, 1]     
  9                  -1  1     61752  ultralytics.nn.backbone.MobileNetV3.MobileNetV3_InvertedResidual[16, 24, 288, 5, 2, 1, 1]     
 10                  -1  1    211008  ultralytics.nn.backbone.MobileNetV3.MobileNetV3_InvertedResidual[24, 24, 576, 5, 1, 1, 1]     
 11                  -1  1    211008  ultralytics.nn.backbone.MobileNetV3.MobileNetV3_InvertedResidual[24, 24, 576, 5, 1, 1, 1]     
 12                  -1  1         0  torch.nn.modules.upsampling.Upsample         [None, 2, 'nearest']          
 13             [-1, 8]  1         0  ultralytics.nn.modules.conv.Concat           [1]                           
 14                  -1  1     43190  ultralytics.nn.modules.block.C2f_DCN         [40, 64, 1]                   
 15                  -1  1         0  torch.nn.modules.upsampling.Upsample         [None, 2, 'nearest']          
 16             [-1, 3]  1         0  ultralytics.nn.modules.conv.Concat           [1]                           
 17                  -1  1     16502  ultralytics.nn.modules.block.C2f_DCN         [72, 32, 1]                   
 18                  -1  1      9280  ultralytics.nn.modules.conv.Conv             [32, 32, 3, 2]                
 19            [-1, 14]  1         0  ultralytics.nn.modules.conv.Concat           [1]                           
 20                  -1  1     46774  ultralytics.nn.modules.block.C2f_DCN         [96, 64, 1]                   
 21                  -1  1     36992  ultralytics.nn.modules.conv.Conv             [64, 64, 3, 2]                
 22            [-1, 11]  1         0  ultralytics.nn.modules.conv.Concat           [1]                           
 23                  -1  1    141622  ultralytics.nn.modules.block.C2f_DCN         [88, 128, 1]                  
 24        [17, 20, 23]  1    345622  ultralytics.nn.modules.head.Detect           [2, [32, 64, 128]]            
mobilev3_small summary: 316 layers, 1260740 parameters, 1260724 gradients, 2.8 GFLOPs

Ultralytics YOLOv8.0.184 🚀 Python-3.8.16 torch-1.10.1+cu111 CUDA:0 (Tesla V100S-PCIE-32GB, 32501MiB)
WARNING ⚠️ Upgrade to torch>=2.0.0 for deterministic training.
[34m[1mengine/trainer: [0mtask=detect, mode=train, model=/public/agis/panweihua_group/jingxuebin/yolov8/ultralytics/
…
