…
lytics/cfg/hyp.scratch.sl.yaml, reg_decay_type=linear, reg_decay=0.1, reg_decay_step=10, prune_model=False, teacher_weights=None, teacher_cfg=None, kd_loss_type=logical, kd_loss_decay=constant, logical_loss_type=l2, logical_loss_ratio=1.0, teacher_kd_layers=15,18,21, student_kd_layers=16, 20, 23, feature_loss_type=cwd, feature_loss_ratio=1.0, save_dir=runs/prune/lrd_prune-prune
WARNING ⚠️ no model scale passed. Assuming scale='n'.

                   from  n    params  module                                       arguments                     
  0                  -1  1       464  ultralytics.nn.modules.conv.Conv             [3, 16, 3, 2]                 
  1                  -1  1      4672  ultralytics.nn.modules.conv.Conv             [16, 32, 3, 2]                
  2                  -1  1      7360  ultralytics.nn.modules.block.C2f             [32, 32, 1, True]             
  3                  -1  1     18560  ultralytics.nn.modules.conv.Conv             [32, 64, 3, 2]                
  4                  -1  2     49664  ultralytics.nn.modules.block.C2f             [64, 64, 2, True]             
  5                  -1  1     73984  ultralytics.nn.modules.conv.Conv             [64, 128, 3, 2]               
  6                  -1  2    197632  ultralytics.nn.modules.block.C2f             [128, 128, 2, True]           
  7                  -1  1    295424  ultralytics.nn.modules.conv.Conv             [128, 256, 3, 2]              
  8                  -1  1    460288  ultralytics.nn.modules.block.C2f             [256, 256, 1, True]           
  9                  -1  1    164608  ultralytics.nn.modules.block.SPPF            [256, 256, 5]                 
 10                  -1  1         0  torch.nn.modules.upsampling.Upsample         [None, 2, 'nearest']          
 11             [-1, 6]  1         0  ultralytics.nn.modules.conv.Concat           [1]                           
 12                  -1  1    148224  ultralytics.nn.modules.block.C2f             [384, 128, 1]                 
 13                  -1  1         0  torch.nn.modules.upsampling.Upsample         [None, 2, 'nearest']          
 14             [-1, 4]  1         0  ultralytics.nn.modules.conv.Concat           [1]                           
 15                  -1  1     37248  ultralytics.nn.modules.block.C2f             [192, 64, 1]                  
 16                  -1  1      4258  ultralytics.nn.modules.conv.CBAM             [64, 256]                     
 17                  -1  1     36992  ultralytics.nn.modules.conv.Conv             [64, 64, 3, 2]                
 18            [-1, 12]  1         0  ultralytics.nn.modules.conv.Concat           [1]                           
 19                  -1  1    123648  ultralytics.nn.modules.block.C2f             [192, 128, 1]                 
 20                  -1  1     16610  ultralytics.nn.modules.conv.CBAM             [128, 512]                    
 21                  -1  1    147712  ultralytics.nn.modules.conv.Conv             [128, 128, 3, 2]              
 22             [-1, 9]  1         0  ultralytics.nn.modules.conv.Concat           [1]                           
 23                  -1  1    493056  ultralytics.nn.modules.block.C2f             [384, 256, 1]                 
 24        [16, 20, 23]  1    751702  ultralytics.nn.modules.head.Detect           [2, [64, 128, 256]]           
LRD summary: 241 layers, 3032106 parameters, 3032090 gradients, 8.2 GFLOPs

Transferred 361/361 items from pretrained weights
Freezing layer 'model.24.dfl.conv.weight'

[34m[1mtrain: [0mScanning /public/home/wangyuanhao/rolled/ultralytics-main/data/labels/train.cache... 584 images, 0 backgrounds, 0 corrupt: 100%|██████████| 584/584 [00:00<?, ?it/s]
[34m[1mtrain: 
…
