…
  2                  -1  1       768  ultralytics.nn.qihnet.ShuffleNetV2           [32, 32, 1]                   
  3                  -1  1      4032  ultralytics.nn.qihnet.ShuffleNetV2           [32, 64, 2]                   
  4                  -1  2      5120  ultralytics.nn.qihnet.ShuffleNetV2           [64, 64, 1]                   
  5                  -1  1     13128  ultralytics.nn.qihnet.ShuffleNetV2           [64, 120, 2]                  
  6                  -1  1      8160  ultralytics.nn.qihnet.ShuffleNetV2           [120, 120, 1]                 
  7                  -1  1     69272  ultralytics.nn.modules.block.SPPF            [120, 256, 5]                 
  8                  -1  1         0  torch.nn.modules.upsampling.Upsample         [None, 2, 'nearest']          
  9             [-1, 4]  1         0  ultralytics.nn.modules.conv.Concat           [1]                           
 10                  -1  1    171318  ultralytics.nn.modules.block.C2f_DCN         [320, 128, 1]                 
 11                  -1  1         0  torch.nn.modules.upsampling.Upsample         [None, 2, 'nearest']          
 12             [-1, 2]  1         0  ultralytics.nn.modules.conv.Concat           [1]                           
 13                  -1  1     50870  ultralytics.nn.modules.block.C2f_DCN         [160, 64, 1]                  
 14                  -1  1     36992  ultralytics.nn.modules.conv.Conv             [64, 64, 3, 2]                
 15            [-1, 10]  1         0  ultralytics.nn.modules.conv.Concat           [1]                           
 16                  -1  1    154934  ultralytics.nn.modules.block.C2f_DCN         [192, 128, 1]                 
 17                  -1  1    147712  ultralytics.nn.modules.conv.Conv             [128, 128, 3, 2]              
 18             [-1, 7]  1         0  ultralytics.nn.modules.conv.Concat           [1]                           
 19                  -1  1    555574  ultralytics.nn.modules.block.C2f_DCN         [384, 256, 1]                 
 20        [13, 16, 19]  1    897664  ultralytics.nn.modules.head.Detect           [80, [64, 128, 256]]          
shufflenetv2 summary: 235 layers, 2116672 parameters, 2116656 gradients, 5.3 GFLOPs

Ultralytics YOLOv8.0.184 ðŸš€ Python-3.8.16 torch-1.10.1+cu111 CUDA:0 (Tesla V100S-PCIE-32GB, 32501MiB)
WARNING âš ï¸ Upgrade to torch>=2.0.0 for deterministic training.
[34m[1mengine/trainer: [0mtask=detect, mode=train, model=/public/agis/panweihua_group/jingxuebin/yolov8/ultralyt
…
  2                  -1  1       768  ultralytics.nn.qihnet.ShuffleNetV2           [32, 32, 1]                   
  3                  -1  1      4032  ultralytics.nn.qihnet.ShuffleNetV2           [32, 64, 2]                   
  4                  -1  2      5120  ultralytics.nn.qihnet.ShuffleNetV2           [64, 64, 1]                   
  5                  -1  1     13128  ultralytics.nn.qihnet.ShuffleNetV2           [64, 120, 2]                  
  6                  -1  1      8160  ultralytics.nn.qihnet.ShuffleNetV2           [120, 120, 1]                 
  7                  -1  1     69272  ultralytics.nn.modules.block.SPPF            [120, 256, 5]                 
  8                  -1  1         0  torch.nn.modules.upsampling.Upsample         [None, 2, 'nearest']          
  9             [-1, 4]  1         0  ultralytics.nn.modules.conv.Concat           [1]                           
 10                  -1  1    171318  ultralytics.nn.modules.block.C2f_DCN         [320, 128, 1]                 
 11                  -1  1         0  torch.nn.modules.upsampling.Upsample         [None, 2, 'nearest']          
 12             [-1, 2]  1         0  ultralytics.nn.modules.conv.Concat           [1]                           
 13                  -1  1     50870  ultralytics.nn.modules.block.C2f_DCN         [160, 64, 1]                  
 14                  -1  1     36992  ultralytics.nn.modules.conv.Conv             [64, 64, 3, 2]                
 15            [-1, 10]  1         0  ultralytics.nn.modules.conv.Concat           [1]                           
 16                  -1  1    154934  ultralytics.nn.modules.block.C2f_DCN         [192, 128, 1]                 
 17                  -1  1    147712  ultralytics.nn.modules.conv.Conv             [128, 128, 3, 2]              
 18             [-1, 7]  1         0  ultralytics.nn.modules.conv.Concat           [1]                           
 19                  -1  1    555574  ultralytics.nn.modules.block.C2f_DCN         [384, 256, 1]                 
 20        [13, 16, 19]  1    751702  ultralytics.nn.modules.head.Detect           [2, [64, 128, 256]]           
shufflenetv2 summary: 235 layers, 1970710 parameters, 1970694 gradients, 4.6 GFLOPs

Freezing layer 'model.20.dfl.conv.weight'
[34m[1mtrain: [0mScanning /public/agis/panweihua_group/jingxuebin/yolov8/ultralytics/data/labels/train.cache... 584 images, 0 backgrounds, 0 corrupt: 100%|â–ˆâ–ˆâ–ˆâ–ˆâ–ˆâ–ˆâ–ˆâ–ˆâ–ˆâ–ˆ| 584/584 [00:00<?, ?it/s][34m[1mtrain: [0mScanning /public/agis/panweihua_group/jingxuebin/yolov8/ultralytics/data/labels/train.cache... 584 images, 0 backgrounds, 0 corrupt: 100%|â–ˆâ–ˆâ–ˆâ–ˆâ–ˆâ–ˆâ–ˆâ–ˆâ–ˆâ–ˆ| 584/584 [00:00<?, ?it/s]
…
