/public/agis/panweihua_group/jingxuebin/miniconda3/envs/pytorch/bin/python

                   from  n    params  module                                       arguments                     
  0                  -1  1      1600  ultralytics.nn.modules.conv.Conv             [3, 32, 4, 4]                 
  1                  -1  1      4064  ultralytics.nn.modules.block.vanillanetBlock [32, 64, 1, 2]                
  2                  -1  1     14272  ultralytics.nn.modules.block.vanillanetBlock [64, 128, 1, 2]               
  3                  -1  1     53120  ultralytics.nn.modules.block.vanillanetBlock [128, 256, 1, 2]              
  4                  -1  1    164608  ultralytics.nn.modules.block.SPPF            [256, 256, 5]                 
  5                  -1  1         0  torch.nn.modules.upsampling.Upsample         [None, 2, 'nearest']          
  6             [-1, 2]  1         0  ultralytics.nn.modules.conv.Concat           [1]                           
  7                  -1  1    179510  ultralytics.nn.modules.block.C2f_DCN         [384, 128, 1]                 
  8                  -1  1         0  torch.nn.modules.upsampling.Upsample         [None, 2, 'nearest']          
  9             [-1, 1]  1         0  ultralytics.nn.modules.conv.Concat           [1]                           
 10                  -1  1     52918  ultralytics.nn.modules.block.C2f_DCN         [192, 64, 1]                  
 11                  -1  1     36992  ultralytics.nn.modules.conv.Conv             [64, 64, 3, 2]                
 12             [-1, 7]  1         0  ultralytics.nn.modules.conv.Concat           [1]                           
 13                  -1  1    154934  ultralytics.nn.modules.block.C2f_DCN         [192, 128, 1]                 
 14                  -1  1    147712  ultralytics.nn.modules.conv.Conv             [128, 128, 3, 2]              
 15             [-1, 4]  1         0  ultralytics.nn.modules.conv.Concat           [1]                           
 16                  -1  1    555574  ultralytics.nn.modules.block.C2f_DCN         [384, 256, 1]                 
 17        [10, 13, 16]  1    752872  ultralytics.nn.modules.head.Detect           [8, [64, 128, 256]]           
va5 summary: 169 layers, 2118176 parameters, 2118160 gradients, 5.3 GFLOPs

Ultralytics YOLOv8.0.184 ðŸš€ Python-3.8.16 torch-1.10.1+cu111 CUDA:0 (Tesla V100S-PCIE-32GB, 32501MiB)
WARNING âš ï¸ Upgrade to torch>=2.0.0 for deterministic training.
[34m[1mengine/trainer: [0mtask=detect, mode=train, model=/public/agis/panweihua_group/jingxuebin/yolov8/ultralytics/ultra
…
entum=0.937, weight_decay=0.0005, warmup_epochs=3.0, warmup_momentum=0.8, warmup_bias_lr=0.1, box=7.5, cls=0.5, dfl=1.5, pose=12.0, kobj=1.0, label_smoothing=0.0, nbs=64, hsv_h=0.015, hsv_s=0.7, hsv_v=0.4, degrees=0.0, translate=0.1, scale=0.5, shear=0.0, perspective=0.0, flipud=0.0, fliplr=0.5, mosaic=1.0, mixup=0.0, copy_paste=0.0, cfg=None, tracker=botsort.yaml, save_dir=runs/detect/train297
Overriding model.yaml nc=8 with nc=2

                   from  n    params  module                                       arguments                     
  0                  -1  1      1600  ultralytics.nn.modules.conv.Conv             [3, 32, 4, 4]                 
  1                  -1  1      4064  ultralytics.nn.modules.block.vanillanetBlock [32, 64, 1, 2]                
  2                  -1  1     14272  ultralytics.nn.modules.block.vanillanetBlock [64, 128, 1, 2]               
  3                  -1  1     53120  ultralytics.nn.modules.block.vanillanetBlock [128, 256, 1, 2]              
  4                  -1  1    164608  ultralytics.nn.modules.block.SPPF            [256, 256, 5]                 
  5                  -1  1         0  torch.nn.modules.upsampling.Upsample         [None, 2, 'nearest']          
  6             [-1, 2]  1         0  ultralytics.nn.modules.conv.Concat           [1]                           
  7                  -1  1    179510  ultralytics.nn.modules.block.C2f_DCN         [384, 128, 1]                 
  8                  -1  1         0  torch.nn.modules.upsampling.Upsample         [None, 2, 'nearest']          
  9             [-1, 1]  1         0  ultralytics.nn.modules.conv.Concat           [1]                           
 10                  -1  1     52918  ultralytics.nn.modules.block.C2f_DCN         [192, 64, 1]                  
 11                  -1  1     36992  ultralytics.nn.modules.conv.Conv             [64, 64, 3, 2]                
 12             [-1, 7]  1         0  ultralytics.nn.modules.conv.Concat           [1]                           
 13                  -1  1    154934  ultralytics.nn.modules.block.C2f_DCN         [192, 128, 1]                 
 14                  -1  1    147712  ultralytics.nn.modules.conv.Conv             [128, 128, 3, 2]              
 15             [-1, 4]  1         0  ultralytics.nn.modules.conv.Concat           [1]                           
 16                  -1  1    555574  ultralytics.nn.modules.block.C2f_DCN         [384, 256, 1]                 
 17        [10, 13, 16]  1    751702  ultralytics.nn.modules.head.Detect           [2, [64, 128, 256]]           
va5 summary: 169 layers, 2117006 parameters, 2116990 gradients, 5.3 GFLOPs

Freezing layer 'model.17.dfl.conv.weight'
[34m[1mtrain: [0mScanning /public/agis/panweihua_group/jingxuebin/yolov8/ultralytics/data/labels/train.cache... 584 images, 0 backgrounds, 0 corrupt: 100%|â–ˆâ–ˆâ–ˆâ–ˆâ–ˆâ–ˆâ–ˆâ–ˆâ–ˆâ–ˆ| 584/584 [00:00<?, ?it/s][34m[1mtrain: [0mScanning /public/agis/panweihua_group/jingxuebin/yolov8/ultralytics/data/labels/train.cache... 584 images, 0 backgrounds, 0 corrupt: 100%|â–ˆâ–ˆâ–ˆâ–ˆâ–ˆâ–ˆâ–ˆâ–ˆâ–ˆâ–ˆ| 584/584 [00:00<?, ?it/s]
…
