/public/agis/panweihua_group/jingxuebin/miniconda3/envs/pytorch/bin/python
WARNING ⚠️ no model scale passed. Assuming scale='n'.

                   from  n    params  module                                       arguments                     
  0                  -1  1      1600  ultralytics.nn.modules.conv.Conv             [3, 32, 4, 4]                 
  1                  -1  1      2592  ultralytics.nn.modules.block.vanillanetBlock [32, 32, 1, 1]                
  2                  -1  1      4064  ultralytics.nn.modules.block.vanillanetBlock [32, 64, 1, 2]                
  3                  -1  1     14272  ultralytics.nn.modules.block.vanillanetBlock [64, 128, 1, 2]               
  4                  -1  1     34944  ultralytics.nn.modules.block.vanillanetBlock [128, 128, 1, 1]              
  5                  -1  1     34944  ultralytics.nn.modules.block.vanillanetBlock [128, 128, 1, 1]              
  6                  -1  1     53120  ultralytics.nn.modules.block.vanillanetBlock [128, 256, 1, 2]              
  7                  -1  1    135424  ultralytics.nn.modules.block.vanillanetBlock [256, 256, 1, 1]              
  8                  -1  1    164608  ultralytics.nn.modules.block.SPPF            [256, 256, 5]                 
  9                  -1  1         0  torch.nn.modules.upsampling.Upsample         [None, 2, 'nearest']          
 10             [-1, 5]  1         0  ultralytics.nn.modules.conv.Concat           [1]                           
 11                  -1  1    179510  ultralytics.nn.modules.block.C2f_DCN         [384, 128, 1]                 
 12                  -1  1         0  torch.nn.modules.upsampling.Upsample         [None, 2, 'nearest']          
 13             [-1, 2]  1         0  ultralytics.nn.modules.conv.Concat           [1]                           
 14                  -1  1     52918  ultralytics.nn.modules.block.C2f_DCN         [192, 64, 1]                  
 15                  -1  1     36992  ultralytics.nn.modules.conv.Conv             [64, 64, 3, 2]                
 16            [-1, 11]  1         0  ultralytics.nn.modules.conv.Concat           [1]                           
 17                  -1  1    154934  ultralytics.nn.modules.block.C2f_DCN         [192, 128, 1]                 
 18                  -1  1    147712  ultralytics.nn.modules.conv.Conv             [128, 128, 3, 2]              
 19             [-1, 8]  1         0  ultralytics.nn.modules.conv.Concat           [1]                           
 20                  -1  1    555574  ultralytics.nn.modules.block.C2f_DCN         [384, 256, 1]                 
 21        [14, 17, 20]  1    897664  ultralytics.nn.modules.head.Detect           [80, [64, 128, 256]]          
va9 summary: 209 layers, 2470872 parameters, 2470856 gradients, 6.4 GFLOPs

Ultralytics YOLOv8.0.184 🚀 Python-3.8.16 torch-1.10.1+cu111 CUDA:0 (Tesla V100S-PCIE-32GB, 32501MiB)
WARNING ⚠️ Upgrade to torch>=2.0.0 for deterministic training.
[34m[1mengine/trainer: [0mtask=detect, mode=train, model=/public/agis/panweihua_group/jingxuebin/yolov8/ultralytics/ultralytics
…
rmup_momentum=0.8, warmup_bias_lr=0.1, box=7.5, cls=0.5, dfl=1.5, pose=12.0, kobj=1.0, label_smoothing=0.0, nbs=64, hsv_h=0.015, hsv_s=0.7, hsv_v=0.4, degrees=0.0, translate=0.1, scale=0.5, shear=0.0, perspective=0.0, flipud=0.0, fliplr=0.5, mosaic=1.0, mixup=0.0, copy_paste=0.0, cfg=None, tracker=botsort.yaml, save_dir=runs/detect/train305
Overriding model.yaml nc=80 with nc=2
WARNING ⚠️ no model scale passed. Assuming scale='n'.

                   from  n    params  module                                       arguments                     
  0                  -1  1      1600  ultralytics.nn.modules.conv.Conv             [3, 32, 4, 4]                 
  1                  -1  1      2592  ultralytics.nn.modules.block.vanillanetBlock [32, 32, 1, 1]                
  2                  -1  1      4064  ultralytics.nn.modules.block.vanillanetBlock [32, 64, 1, 2]                
  3                  -1  1     14272  ultralytics.nn.modules.block.vanillanetBlock [64, 128, 1, 2]               
  4                  -1  1     34944  ultralytics.nn.modules.block.vanillanetBlock [128, 128, 1, 1]              
  5                  -1  1     34944  ultralytics.nn.modules.block.vanillanetBlock [128, 128, 1, 1]              
  6                  -1  1     53120  ultralytics.nn.modules.block.vanillanetBlock [128, 256, 1, 2]              
  7                  -1  1    135424  ultralytics.nn.modules.block.vanillanetBlock [256, 256, 1, 1]              
  8                  -1  1    164608  ultralytics.nn.modules.block.SPPF            [256, 256, 5]                 
  9                  -1  1         0  torch.nn.modules.upsampling.Upsample         [None, 2, 'nearest']          
 10             [-1, 5]  1         0  ultralytics.nn.modules.conv.Concat           [1]                           
 11                  -1  1    179510  ultralytics.nn.modules.block.C2f_DCN         [384, 128, 1]                 
 12                  -1  1         0  torch.nn.modules.upsampling.Upsample         [None, 2, 'nearest']          
 13             [-1, 2]  1         0  ultralytics.nn.modules.conv.Concat           [1]                           
 14                  -1  1     52918  ultralytics.nn.modules.block.C2f_DCN         [192, 64, 1]                  
 15                  -1  1     36992  ultralytics.nn.modules.conv.Conv             [64, 64, 3, 2]                
 16            [-1, 11]  1         0  ultralytics.nn.modules.conv.Concat           [1]                           
 17                  -1  1    154934  ultralytics.nn.modules.block.C2f_DCN         [192, 128, 1]                 
 18                  -1  1    147712  ultralytics.nn.modules.conv.Conv             [128, 128, 3, 2]              
 19             [-1, 8]  1         0  ultralytics.nn.modules.conv.Concat           [1]                           
 20                  -1  1    555574  ultralytics.nn.modules.block.C2f_DCN         [384, 256, 1]                 
 21        [14, 17, 20]  1    751702  ultralytics.nn.modules.head.Detect           [2, [64, 128, 256]]           
va9 summary: 209 layers, 2324910 parameters, 2324894 gradients, 5.8 GFLOPs

Freezing layer 'model.21.dfl.conv.weight'
[34m[1mtrain: [0mScanning /public/agis/panweihua_group/jingxuebin/yolov8/ultralytics/data/labels/train.cache... 584 images, 0 backgrounds, 0 corrupt: 100%|██████████| 584/584 [00:00<?, ?it/s][34m[1mtrain: [0mScanning /public/agis/panweihua_group/jingxuebin/yolov8/ultralytics/data/labels/train.cache... 584 images, 0 backgrounds, 0 corrupt: 100%|██████████| 584/584 [00:00<?, ?it/s]
…
